name: "NSCT"

input: "raw_features"
input_dim: 1
input_dim: 3
input_dim: 224
input_dim: 224

# ------------------------ Shallow net over raw features -----------------------------

layer {
	name: "conv1"
	type: "Convolution"
	bottom: "raw_features"
	top: "conv1"
	param {
		lr_mult: 1.0
	}
	param {
		lr_mult: 2.0
	}
	convolution_param {
		num_output: 256
		kernel_size: 7
		pad: 3
		stride: 4
		weight_filler {
			type: "gaussian"
			std: 0.01
		}
		bias_filler {
			type: "constant"
			value: 1
		}
	}
}

layer {
	name: "relu1"
	type: "ReLU"
	bottom: "conv1"
	top: "conv1"
}

layer {
	name: "norm1"
	type: "LRN"
	bottom: "conv1"
	top: "norm1"
	lrn_param {
		local_size: 3
		alpha: 0.00005
		beta: 0.75
		norm_region: WITHIN_CHANNEL
	}
}

layer {
	name: "pool1"
	type: "Pooling"
	bottom: "norm1"
	top: "pool1"
	pooling_param {
		kernel_size: 7
		stride: 4
		pad: 3
		pool: MAX
	}
}

#----------------------- RPN -------------------------
layer {
   name: "conv_proposal1"
   type: "Convolution"
   bottom: "pool1"
   top: "conv_proposal1"
	param {
		lr_mult: 1.0
	}
	param {
		lr_mult: 2.0
	}
   convolution_param{
	   num_output: 256
	   kernel_size: 3
	   pad: 1
	   stride: 1
	   weight_filler {
		 type: "gaussian"
		 std: 0.01
	   }
	   bias_filler {
		 type: "constant"
		 value: 0
	   }
   }
}

layer {
   name: "relu_proposal1"
   type: "ReLU"
   bottom: "conv_proposal1"
   top: "conv_proposal1"
}

layer {
   name: "proposal_cls_score"
   type: "Convolution"
   bottom: "conv_proposal1"
   top: "proposal_cls_score"
	param {
		lr_mult: 1.0
	}
	param {
		lr_mult: 2.0
	}
   convolution_param{
	   num_output: 18   # 2(bg/fg) * 9(anchors) 
	   kernel_size: 1
	   pad: 0
	   stride: 1
	   weight_filler {
		 type: "gaussian"
		 std: 0.01
	   }
	   bias_filler {
		 type: "constant"
		 value: 0
	   }
   }
}

layer {
   name: "proposal_bbox_pred"
   type: "Convolution"
   bottom: "conv_proposal1"
   top: "proposal_bbox_pred"
	param {
		lr_mult: 1.0
	}
	param {
		lr_mult: 2.0
	}
   convolution_param{
	   num_output: 36	# 4 * 9(anchors) 
	   kernel_size: 1
	   pad: 0
	   stride: 1
	   weight_filler {
		 type: "gaussian"
		 std: 0.01
	   }
	   bias_filler {
		 type: "constant"
		 value: 0
	   }
   }
}

#-----------------------output------------------------

# to enable the calculation of softmax loss, we first reshape blobs related to SoftmaxWithLoss
layer {
   bottom: "proposal_cls_score"
   top: "proposal_cls_score_reshape"
   name: "proposal_cls_score_reshape"
   type: "Reshape"
   reshape_param{
	   shape {
			dim: 0 
			dim: 2
			dim: -1 
			dim: 0
		}
	}
}

layer {
   name: "proposal_cls_prob"
   type: "Softmax"
   bottom: "proposal_cls_score_reshape"
   top: "proposal_cls_prob"
}
